…
│ (InputLayer)        │ 1)                │            │                   │
├─────────────────────┼───────────────────┼────────────┼───────────────────┤
│ block1_conv1_gray   │ (None, 224, 224,  │        640 │ image_input[0][0] │
│ (Conv2D)            │ 64)               │            │                   │
├─────────────────────┼───────────────────┼────────────┼───────────────────┤
│ block5_pool         │ (None, 112, 112,  │          0 │ block1_conv1_gra… │
│ (MaxPooling2D)      │ 64)               │            │                   │
├─────────────────────┼───────────────────┼────────────┼───────────────────┤
│ tabular_input       │ (None, 60)        │          0 │ -                 │
│ (InputLayer)        │                   │            │                   │
├─────────────────────┼───────────────────┼────────────┼───────────────────┤
│ global_average_poo… │ (None, 64)        │          0 │ block5_pool[1][0] │
│ (GlobalAveragePool… │                   │            │                   │
├─────────────────────┼───────────────────┼────────────┼───────────────────┤
│ dense_205 (Dense)   │ (None, 64)        │      3,904 │ tabular_input[0]… │
├─────────────────────┼───────────────────┼────────────┼───────────────────┤
│ dense_204 (Dense)   │ (None, 256)       │     16,640 │ global_average_p… │
├─────────────────────┼───────────────────┼────────────┼───────────────────┤
│ dense_206 (Dense)   │ (None, 32)        │      2,080 │ dense_205[0][0]   │
├─────────────────────┼───────────────────┼────────────┼───────────────────┤
│ concatenate_34      │ (None, 288)       │          0 │ dense_204[0][0],  │
│ (Concatenate)       │                   │            │ dense_206[0][0]   │
├─────────────────────┼───────────────────┼────────────┼───────────────────┤
│ dense_207 (Dense)   │ (None, 128)       │     36,992 │ concatenate_34[0… │
├─────────────────────┼───────────────────┼────────────┼───────────────────┤
│ dropout_68          │ (None, 128)       │          0 │ dense_207[0][0]   │
│ (Dropout)           │                   │            │                   │
├─────────────────────┼───────────────────┼────────────┼───────────────────┤
│ dense_208 (Dense)   │ (None, 64)        │      8,256 │ dropout_68[0][0]  │
├─────────────────────┼───────────────────┼────────────┼───────────────────┤
│ dropout_69          │ (None, 64)        │          0 │ dense_208[0][0]   │
│ (Dropout)           │                   │            │                   │
├─────────────────────┼───────────────────┼────────────┼───────────────────┤
│ dense_209 (Dense)   │ (None, 1)         │         65 │ dropout_69[0][0]  │
└─────────────────────┴───────────────────┴────────────┴───────────────────┘
 Total params: 205,733 (803.65 KB)
 Trainable params: 68,577 (267.88 KB)
 Non-trainable params: 0 (0.00 B)
 Optimizer params: 137,156 (535.77 KB)

