…
│ (InputLayer)        │ 1)                │            │                   │
├─────────────────────┼───────────────────┼────────────┼───────────────────┤
│ block1_conv1_gray   │ (None, 224, 224,  │        640 │ image_input[0][0] │
│ (Conv2D)            │ 64)               │            │                   │
├─────────────────────┼───────────────────┼────────────┼───────────────────┤
│ block5_pool         │ (None, 112, 112,  │          0 │ block1_conv1_gra… │
│ (MaxPooling2D)      │ 64)               │            │                   │
├─────────────────────┼───────────────────┼────────────┼───────────────────┤
│ tabular_input       │ (None, 40)        │          0 │ -                 │
│ (InputLayer)        │                   │            │                   │
├─────────────────────┼───────────────────┼────────────┼───────────────────┤
│ global_average_poo… │ (None, 64)        │          0 │ block5_pool[1][0] │
│ (GlobalAveragePool… │                   │            │                   │
├─────────────────────┼───────────────────┼────────────┼───────────────────┤
│ dense_427 (Dense)   │ (None, 64)        │      2,624 │ tabular_input[0]… │
├─────────────────────┼───────────────────┼────────────┼───────────────────┤
│ dense_426 (Dense)   │ (None, 256)       │     16,640 │ global_average_p… │
├─────────────────────┼───────────────────┼────────────┼───────────────────┤
│ dense_428 (Dense)   │ (None, 32)        │      2,080 │ dense_427[0][0]   │
├─────────────────────┼───────────────────┼────────────┼───────────────────┤
│ concatenate_71      │ (None, 288)       │          0 │ dense_426[0][0],  │
│ (Concatenate)       │                   │            │ dense_428[0][0]   │
├─────────────────────┼───────────────────┼────────────┼───────────────────┤
│ dense_429 (Dense)   │ (None, 128)       │     36,992 │ concatenate_71[0… │
├─────────────────────┼───────────────────┼────────────┼───────────────────┤
│ dropout_142         │ (None, 128)       │          0 │ dense_429[0][0]   │
│ (Dropout)           │                   │            │                   │
├─────────────────────┼───────────────────┼────────────┼───────────────────┤
│ dense_430 (Dense)   │ (None, 64)        │      8,256 │ dropout_142[0][0] │
├─────────────────────┼───────────────────┼────────────┼───────────────────┤
│ dropout_143         │ (None, 64)        │          0 │ dense_430[0][0]   │
│ (Dropout)           │                   │            │                   │
├─────────────────────┼───────────────────┼────────────┼───────────────────┤
│ dense_431 (Dense)   │ (None, 1)         │         65 │ dropout_143[0][0] │
└─────────────────────┴───────────────────┴────────────┴───────────────────┘
 Total params: 201,893 (788.65 KB)
 Trainable params: 67,297 (262.88 KB)
 Non-trainable params: 0 (0.00 B)
 Optimizer params: 134,596 (525.77 KB)

