…
│ (InputLayer)        │ 1)                │            │                   │
├─────────────────────┼───────────────────┼────────────┼───────────────────┤
│ block1_conv1_gray   │ (None, 224, 224,  │        640 │ image_input[0][0] │
│ (Conv2D)            │ 64)               │            │                   │
├─────────────────────┼───────────────────┼────────────┼───────────────────┤
│ block5_pool         │ (None, 112, 112,  │          0 │ block1_conv1_gra… │
│ (MaxPooling2D)      │ 64)               │            │                   │
├─────────────────────┼───────────────────┼────────────┼───────────────────┤
│ tabular_input       │ (None, 60)        │          0 │ -                 │
│ (InputLayer)        │                   │            │                   │
├─────────────────────┼───────────────────┼────────────┼───────────────────┤
│ global_average_poo… │ (None, 64)        │          0 │ block5_pool[1][0] │
│ (GlobalAveragePool… │                   │            │                   │
├─────────────────────┼───────────────────┼────────────┼───────────────────┤
│ dense_145 (Dense)   │ (None, 64)        │      3,904 │ tabular_input[0]… │
├─────────────────────┼───────────────────┼────────────┼───────────────────┤
│ dense_144 (Dense)   │ (None, 256)       │     16,640 │ global_average_p… │
├─────────────────────┼───────────────────┼────────────┼───────────────────┤
│ dense_146 (Dense)   │ (None, 32)        │      2,080 │ dense_145[0][0]   │
├─────────────────────┼───────────────────┼────────────┼───────────────────┤
│ concatenate_24      │ (None, 288)       │          0 │ dense_144[0][0],  │
│ (Concatenate)       │                   │            │ dense_146[0][0]   │
├─────────────────────┼───────────────────┼────────────┼───────────────────┤
│ dense_147 (Dense)   │ (None, 128)       │     36,992 │ concatenate_24[0… │
├─────────────────────┼───────────────────┼────────────┼───────────────────┤
│ dropout_48          │ (None, 128)       │          0 │ dense_147[0][0]   │
│ (Dropout)           │                   │            │                   │
├─────────────────────┼───────────────────┼────────────┼───────────────────┤
│ dense_148 (Dense)   │ (None, 64)        │      8,256 │ dropout_48[0][0]  │
├─────────────────────┼───────────────────┼────────────┼───────────────────┤
│ dropout_49          │ (None, 64)        │          0 │ dense_148[0][0]   │
│ (Dropout)           │                   │            │                   │
├─────────────────────┼───────────────────┼────────────┼───────────────────┤
│ dense_149 (Dense)   │ (None, 1)         │         65 │ dropout_49[0][0]  │
└─────────────────────┴───────────────────┴────────────┴───────────────────┘
 Total params: 205,733 (803.65 KB)
 Trainable params: 68,577 (267.88 KB)
 Non-trainable params: 0 (0.00 B)
 Optimizer params: 137,156 (535.77 KB)

